best_dnn.pth (torch, 8033 bytes, 5 tensors)

model.0.weight f4 [30, 32]
0	0xbddb16d9	-0.10697717
1	0x3e3be7b4	0.18350106
2	0xbd8ee93d	-0.069780804
3	0xbd31896d	-0.04334395
4	0xbe267e66	-0.16259155
5	0x3d8f43ee	0.069953784
6	0x3e7ec36e	0.24879238
7	0xbe0eecb8	-0.13957489
8	0x3d837f1e	0.0642073
9	0xbe16189e	-0.14657828
10	0x3dd38386	0.103278205
11	0x3d22c147	0.039735105
12	0xbcee8a1d	-0.029118592
13	0x3e53694c	0.20645636
14	0xbc8ff842	-0.017574433
15	0x3daa089e	0.08302425
16	0x3ea53a0a	0.32270843
17	0x3e85e581	0.2615166
18	0xbb31d95f	-0.002713762
19	0x3d12ae7f	0.035810944
20	0x3e7bc65d	0.24587388
21	0x3e021980	0.1270504
22	0x3d949f69	0.072569676
23	0x3c8e1283	0.017342811
24	0x3e391006	0.18072519
25	0xbcb026dc	-0.021502905
26	0x3deb474f	0.114882104
27	0x3d0c4974	0.034249738
28	0xbd3e1a0b	-0.046411555
29	0xbe83496c	-0.25641954
30	0x3e22b700	0.15890121
31	0xbe6ace53	-0.22930269
32	0xbd031df5	-0.03201099
33	0x3de04cc9	0.109521456
34	0x3e3b9e9a	0.1832222
35	0xbe33d5d0	-0.17562032
36	0xbe6af833	-0.22946243
37	0xbd383cf0	-0.04497999
38	0xbadbfec7	-0.0016784304
39	0xbd8e3162	-0.06943013
40	0xbd07e3c0	-0.033176184
41	0xbe28aaa8	-0.1647135
42	0x3ce1c63a	0.027560342
43	0xbd65de11	-0.056119982
44	0x3d5ef879	0.05443618
45	0x3d7b8b0c	0.061411902
46	0x3d02055c	0.031743392
47	0x3ccfae06	0.025351536
48	0xbe9d0fd5	-0.3067614
49	0x3d813223	0.06308391
50	0x3d99760b	0.07493218
51	0x3cdbdf0e	0.02683976
52	0xbda20a0c	-0.079120725
53	0x3e524f32	0.20538023
54	0xbd6f329e	-0.05839788
55	0xbd64e90d	-0.055886317
56	0x3e7e784d	0.24850579
57	0x3d1f7d2a	0.038937725
58	0xbe070466	-0.13185272
59	0xbe10814f	-0.14111827
60	0xbd509f41	-0.050933126
61	0x3d32b48b	0.04362921
62	0xbe8101df	-0.2519674
63	0x3e5cfb81	0.21580316
64	0xbc26e96e	-0.01018749
65	0x3d6855e0	0.05672252
66	0x3d4186cc	0.047247693
67	0xbe2ce62e	-0.16884682
68	0x3cf7662a	0.030200083
69	0x3c78fa1f	0.015196352
70	0x3c9680eb	0.01837202
71	0xbdbf2d56	-0.09334819
72	0x3e25dd67	0.1619774
73	0x3e0b15cb	0.13582532
74	0x3e75cc93	0.2400382
75	0xbcb2d2db	-0.02182906
76	0x3d5f25ac	0.054479286
77	0x3d65e331	0.05612487
78	0xbbf0571c	-0.007334603
79	0x3cb2d090	0.021827966
80	0xbd8f9f74	-0.07012835
81	0xbe6be9e2	-0.23038438
82	0xbe1b1faa	-0.15148798
83	0xbd9b8c60	-0.07595134
84	0xbe210a69	-0.15726627
85	0xbe735df8	-0.23766315
86	0x3d81908e	0.063264
87	0x3dce80af	0.10083138
88	0xbe498d46	-0.19682798
89	0x3df81378	0.12113088
90	0x3e5b69f9	0.21427144
91	0x3d3de063	0.04635657
92	0x3ad0eba0	0.0015939362
93	0x3e4b5772	0.19857576
94	0x3c0c7dab	0.008574883
95	0xbd6837bb	-0.056693774
96	0xbe169b1c	-0.14707607
97	0x3e5dd3fc	0.21662897
98	0xbcb0e70d	-0.021594549
99	0x3c3c06ea	0.011476258
100	0x3e290f1f	0.16509674
101	0xbe2200c2	-0.15820602
102	0xbe562273	-0.20911579
103	0x3d9aa41e	0.07550834
104	0x3e2ebb36	0.17063603
105	0xbe58884d	-0.21145745
106	0x3dd81e7d	0.1055269
107	0xbde415a1	-0.11136938
108	0xbcf51623	-0.029917782
109	0xbe1d5e0d	-0.15367909
110	0x3cfe96a4	0.03107769
111	0xbdb754fb	-0.089517556
112	0xbe0396cc	-0.12850493
113	0x3e2401e4	0.16016346
114	0x3dd75b94	0.10515514
115	0x3d98ca43	0.07460453
116	0x3e3831d3	0.17987756
117	0xbe3484c7	-0.17628776
118	0x3c21ed60	0.009883255
119	0x3e0fa695	0.1402839
120	0x3e22b7ed	0.15890475
121	0xbd7e338b	-0.062060874
122	0x3e1c4b85	0.15263183
123	0xbd4f5768	-0.050620466
124	0x3b3162d1	0.0027066956
125	0xbe19d143	-0.15021233
126	0xbe186e9a	-0.14885941
127	0xb78ad242	-1.654879e-05
128	0xbe0f48a9	-0.13992561
129	0x3e5e2d8a	0.2169706
130	0x3e28d30e	0.16486761
131	0x3d319b44	0.043360963
132	0xbe0f820b	-0.14014451
133	0x3d06bc7f	0.032894608
134	0x3e39d097	0.18145977
135	0xbde07692	-0.109601155
136	0x3dcffd43	0.10155728
137	0xbe0722a1	-0.13196804
138	0x3daee2ab	0.08539327
139	0x3da4e131	0.08050764
140	0xbdb49968	-0.088183224
141	0x3d59c9ca	0.053170957
142	0xbdf1068d	-0.117688276
143	0xbe166612	-0.14687374
144	0x3e50da97	0.20395885
145	0x3d12d1f8	0.035844773
146	0x3d14fd0c	0.036374137
147	0xbdf4a290	-0.11945069
148	0xbd15dab7	-0.036585536
149	0x3d25de9c	0.0404955
150	0x3d93eee2	0.07223298
151	0x3d6503a3	0.05591167
152	0x3d11c6a4	0.03558983
153	0xbdb67276	-0.089085504
154	0xbe254200	-0.16138458
155	0x3e324f55	0.17413075
156	0xbe02b3d6	-0.12763914
157	0xbd82fc4d	-0.06395779
158	0x3e59fae0	0.21287107
159	0x3e089735	0.13338931
160	0x3ce07d62	0.027403537
161	0x3cdcaad9	0.026936935
162	0x3ea4d774	0.32195628
163	0xbe34b1c6	-0.1764594
164	0xbd900788	-0.070326865
165	0x3e56ac32	0.20964125
166	0xbd903a6e	-0.070423946
167	0xbe5f252d	-0.21791525
168	0x3df1c490	0.118050694
169	0xbe528e8a	-0.20562187
170	0xbd63e301	-0.05563641
171	0xbd9768c2	-0.07393028
172	0xbe41a2aa	-0.18909708
173	0xbce8c29d	-0.028413111
174	0x3e334b8d	0.17509289
175	0xbce4ed19	-0.027945088
176	0xbc3b5e4a	-0.0114360545
177	0xbe30203b	-0.17199795
178	0x3c2bb1be	0.010479389
179	0x3df9f3f3	0.12204733
180	0xbe0fac97	-0.14030682
181	0xbe115cee	-0.14195606
182	0xbcb372e8	-0.021905378
183	0xbda5ca76	-0.08095257
184	0xbd01b1ca	-0.031663693
185	0x3daca7d6	0.0843045
186	0xbd0ce356	-0.034396492
187	0xbe5b9559	-0.2144369
188	0x3e5e3e89	0.21703543
189	0xbd2ab5db	-0.041677337
190	0xbd71a227	-0.05899253
191	0xbc0fe8f1	-0.008783565
192	0xbdd11a23	-0.10210063
193	0x3e18a8a5	0.14908083
194	0x3e8fcb00	0.28084564
195	0xbdb23c2b	-0.087028824
196	0xbe5f67c4	-0.21816927
197	0x3e50c72e	0.20388481
198	0xbd36fb08	-0.044672996
199	0xbd1375eb	-0.036001127
200	0x3dcbf13b	0.099581204
201	0x3dd9011c	0.10595915
202	0x3d838feb	0.064239345
203	0x3dd877f6	0.10569756
204	0x3e456d91	0.19280078
205	0x3e81eda6	0.25376624
206	0x3e1951f1	0.14972664
207	0x3d830ee9	0.06399328
208	0x3e4073f6	0.18794236
209	0xbe1cec78	-0.1532458
210	0xbe3f1ffc	-0.18664545
211	0xbeafff90	-0.34374666
212	0xbdfe68d7	-0.1242234
213	0x3d983ec8	0.074338496
214	0x3e3f821d	0.18701978
215	0xba8c4f35	-0.0010704758
216	0xbe2ac53d	-0.16676803
217	0xbd8d5ebb	-0.06902834
218	0x3ced8141	0.028992297
219	0x3e597ee8	0.21239817
220	0xbda8ac7a	-0.08236022
221	0x3e2a5225	0.16632898
222	0x3e7e4b54	0.24833423
223	0xbe8d3997	-0.27583
224	0xbd3c2671	-0.045935098
225	0x3d80aac7	0.06282573
226	0xbe81742c	-0.25283945
227	0x3db4abe8	0.08821851
228	0xbe14d40a	-0.14534011
229	0xbeae3c47	-0.34030363
230	0xbe148392	-0.14503315
231	0x3e68bd01	0.2272835
232	0x3e5a74c5	0.21333607
233	0xbcd79ccc	-0.026319884
234	0x3e72e4ab	0.23720042
235	0xbd81af32	-0.06332244
236	0xbe3e7251	-0.18598296
237	0xbe34cb1b	-0.17655604
238	0xbcc3c6e1	-0.023898544
239	0x3dea26fd	0.11433218
240	0xbed05049	-0.40686253
241	0x3db6487b	0.08900543
242	0x3ecfb183	0.40565118
243	0x3d86ab6d	0.065756656
244	0x3d5b07cc	0.053474233
245	0xbdfeccdc	-0.124414176
246	0xbdd8fdb1	-0.10595263
247	0xbe56e349	-0.2098514
248	0xbe8e7ce5	-0.27829662
249	0xbe052e7f	-0.13006018
250	0xbda65b64	-0.081229
251	0xbdab13a8	-0.083533585
252	0x3e7ff78c	0.24996775
253	0x3e9ece1e	0.3101663
254	0xbe360f9a	-0.17779389
255	0x3e031a3b	0.12802975

model.0.bias f4 [30]
0	0x3f5174d0	0.81818867
1	0x3e9edcdc	0.31027877
2	0x3f678e5e	0.9045161
3	0x3ec2530f	0.37953994
4	0x3e62bba7	0.22141896
5	0x3f994e27	1.1976975
6	0x3f8022b7	1.0010594
7	0x3f4d2672	0.8013679
8	0x3eb0af3b	0.3450869
9	0x3f15ef8c	0.58568645
10	0x3f8a013d	1.0781628
11	0x3e835e66	0.25657958
12	0xbf18c0b0	-0.5966902
13	0x3e9581cd	0.29200593
14	0x3fe32a37	1.7747258
15	0x3e9b9aae	0.3039145
16	0x3e534f42	0.20635703
17	0x3e7a26d6	0.24428877
18	0x3f9c3f47	1.2206811
19	0x3f98edf4	1.1947618
20	0x3fa060b5	1.2529513
21	0xbda61b3a	-0.08110662
22	0x3ff980dc	1.949245
23	0x3fa409ad	1.2815453
24	0x3fd470de	1.6596944
25	0x3f1669d8	0.58755255
26	0x3e0fd9b4	0.14047891
27	0x3fdaa0d5	1.7080332
28	0x3e8edf5e	0.2790479
29	0x3f941005	1.1567389

model.2.weight f4 [8, 30]
0	0xbdd56fbc	-0.10421702
1	0xbd1c135c	-0.0381044
2	0x3ced724b	0.028985163
3	0x3df33431	0.11875189
4	0xbd229b37	-0.039698806
5	0xbdaae99f	-0.08345341
6	0x3d43f03d	0.04783653
7	0xbdcc1e5c	-0.09966728
8	0x3b0dea2d	0.0021654472
9	0xbdff0851	-0.12452758
10	0xbe2ad64f	-0.16683315
11	0xbe12fbfc	-0.14353937
12	0x3dd78cb0	0.10524881
13	0xbdeefa51	-0.11668838
14	0x3bdf1e89	0.00680906
15	0x3dd97aa5	0.10619096
16	0x3c96dc32	0.018415544
17	0xbd454e17	-0.048170175
18	0x3dfeb3d7	0.124366455
19	0x3d573a49	0.05254582
20	0x3e25ad02	0.16179278
21	0x3dfa5876	0.12223904
22	0xbda23368	-0.07919961
23	0x3e2cc113	0.16870527
24	0xbdd458ed	-0.10368524
25	0xbc80cb57	-0.01572196
26	0x3e1365a1	0.14394237
27	0xbe0c82ab	-0.13721721
28	0xbd82f47c	-0.06394288
29	0xbdec75ac	-0.11545882
30	0xbd04cda4	-0.032422677
31	0xbd4f4691	-0.050604407
32	0x3b6b9c5e	0.0035951356
33	0xbe0950bf	-0.13409708
34	0x3d36b210	0.044603407
35	0xbc4db848	-0.012556143
36	0x3df470e9	0.119355984
37	0xbca0e5e8	-0.019640878
38	0x3d9f1abd	0.07768772
39	0x3dcef4e3	0.10105302
40	0xbdb03b4d	-0.08605061
41	0x3dfb3ccc	0.122674555
42	0xbe0811f6	-0.13288102
43	0xbd868856	-0.06568973
44	0xbdc35d52	-0.09539284
45	0xbe0478d7	-0.12936722
46	0x3da5c42d	0.08094058
47	0xbe15d293	-0.14631109
48	0x3e2a548e	0.16633818
49	0xbe106aad	-0.14103194
50	0xbb3cdf1b	-0.0028819505
51	0x3e37d1c2	0.1795111
52	0x3c364587	0.011124975
53	0xbe1afbd0	-0.15135121
54	0xbcc19fb5	-0.023635725
55	0xbd9facc4	-0.07796624
56	0xbcfc16ec	-0.030772649
57	0x3ba34765	0.004982876
58	0x3e256d08	0.16154873
59	0xbda75be1	-0.081718214
60	0x3d9261fd	0.07147596
61	0xbd319b14	-0.043360785
62	0xbe39eebb	-0.18157475
63	0x3de787a2	0.11305167
64	0xbe2d45e7	-0.16921197
65	0xbd1081ac	-0.035279915
66	0xbd9d30c6	-0.076753184
67	0x3e09cfd9	0.13458194
68	0x3dcebca7	0.10094576
69	0xbdd5212b	-0.10406717
70	0xbba54c73	-0.005044514
71	0xbdbd6d6f	-0.092493884
72	0x3e2d0123	0.16894965
73	0xbe3048d4	-0.17215282
74	0x3cb2f2b0	0.021844238
75	0x3d0e7525	0.034779686
76	0xbe0c99d1	-0.13730551
77	0xbe33418c	-0.17505473
78	0x3d88dc7d	0.0668268
79	0xbe3c5aed	-0.1839406
80	0xbd880791	-0.06642068
81	0xbddd2eb9	-0.10799927
82	0x3d002dd4	0.031293705
83	0x3dd09191	0.101840146
84	0x3dacb5cb	0.08433112
85	0x3d78a550	0.06070453
86	0x3e03bb8d	0.12864514
87	0x3d6f6237	0.058443274
88	0xbd40069a	-0.046881296
89	0xbd2dd903	-0.042443287
90	0xbdb4889f	-0.08815121
91	0x3cc4b267	0.02401085
92	0x3c0a7b65	0.008452271
93	0xbcabc784	-0.02096916
94	0x3e052620	0.13002825
95	0xbdb36e5a	-0.08761282
96	0xbddd80a1	-0.1081555
97	0x3d4380fe	0.04773044
98	0x3de18ceb	0.11013206
99	0x3bc40b1d	0.00598277
100	0xbe07fbfd	-0.1327972
101	0xbde1ae7d	-0.11019609
102	0x3da64daa	0.08120282
103	0x3e2dd98b	0.16977517
104	0x39c9e779	0.00038510168
105	0xbde411f1	-0.111362346
106	0x3d4c30ae	0.049851112
107	0x3dbf46a3	0.09339645
108	0xbdc79025	-0.0974429
109	0x3e0c4a35	0.13700183
110	0x3d4eb3b4	0.050464347
111	0x3dd53312	0.104101315
112	0x3de1e890	0.11030686
113	0xbe153634	-0.14571458
114	0xbe0c073a	-0.13674632
115	0x3dbd7634	0.09251061
116	0xbe0f6e67	-0.14006959
117	0xbd4c3ba6	-0.049861573
118	0xbe0b1ade	-0.13584468
119	0xbd84d5c6	-0.064860865
120	0x3ef90ef3	0.48644218
121	0x3ec34a92	0.3814283
122	0x3f1709f3	0.58999556
123	0x3e970cc5	0.2950193
124	0x3ebfac2c	0.37436044
125	0x3f1d03e0	0.6133404
126	0x3f34b127	0.70582813
127	0x3f3b99a5	0.7328132
128	0x3e8aff87	0.27148077
129	0x3f093837	0.536014
130	0x3f5adb03	0.85490435
131	0x3e76bb82	0.24094966
132	0xbf8bb7c8	-1.091546
133	0x3ec59e21	0.38597205
134	0x3f85f1a5	1.0464369
135	0x3e9f0253	0.3105646
136	0x3e12b5ab	0.14327113
137	0x3ec7b694	0.39006484
138	0x3f1ea940	0.61977005
139	0x3f2fea7c	0.6871717
140	0x3f51f2e9	0.82011276
141	0x3e724223	0.23658042
142	0x3f7709c4	0.96499276
143	0x3f3c23a8	0.7349191
144	0x3f5634e3	0.8367445
145	0x3ed19dbe	0.4094066
146	0x3d7ec301	0.06219769
147	0x3f6ece2c	0.93283343
148	0x3ee96da1	0.45591453
149	0x3f37b55c	0.7176111
150	0x3ba08df2	0.0048997337
151	0x3d498fd7	0.049209442
152	0xbdc34029	-0.09533722
153	0xbd5a88cc	-0.053353116
154	0xbdd43942	-0.103624836
155	0x3e873e5d	0.26414767
156	0x3df2d228	0.118564904
157	0xbcfac873	-0.03061316
158	0x3ddd1d30	0.10796583
159	0x3e79de4c	0.24401206
160	0xbc1314f6	-0.008977165
161	0xbd9525fb	-0.07282635
162	0xbe358a03	-0.17728429
163	0x3e5e97a7	0.21737538
164	0x3e88c41d	0.26712123
165	0x3e3cd95b	0.1844229
166	0x3e0a718e	0.1351988
167	0xbda6f687	-0.0815249
168	0xbdd1ba47	-0.10240608
169	0x3e4cc81c	0.1999821
170	0xbca03555	-0.01955668
171	0xbbe4b6b5	-0.006979788
172	0x3dd25de2	0.10271813
173	0xbbabfcde	-0.00524865
174	0x3c43ccf4	0.01195072
175	0x3e13c9cc	0.14432448
176	0x3d8d7ba1	0.06908346
177	0xbdbab228	-0.09116012
178	0x3e237808	0.15963757
179	0x3d48c20e	0.04901319
180	0xbc27b3b7	-0.010235718
181	0x3e18cffa	0.14923087
182	0xb94b021d	-0.00019360376
183	0xbdcdea7f	-0.10054492
184	0x3de376f1	0.11106671
185	0xbe29d17e	-0.16583821
186	0xbe4ffb13	-0.20310621
187	0xbcb7b60b	-0.022425672
188	0xbdb67c67	-0.089104466
189	0xbe186032	-0.14880446
190	0xbe1b872f	-0.15188287
191	0xbce6e6fe	-0.028186318
192	0x3df4034b	0.119146906
193	0xbe1e7646	-0.15474805
194	0x3e027a3c	0.12741941
195	0x3e137bce	0.14402696
196	0xbd707f7e	-0.058715336
197	0xbe2ac74a	-0.16677585
198	0x3d6df8d1	0.058098618
199	0xbe0eb7c5	-0.1393729
200	0xbd04a559	-0.03238425
201	0xbd042136	-0.032258235
202	0x3dd227e6	0.10261516
203	0x3e00d95a	0.12582913
204	0x3d6a395f	0.05718362
205	0x3d238c33	0.039928626
206	0x3df1c79e	0.11805652
207	0x3d9a80b8	0.075440824
208	0xbd292bea	-0.041301645
209	0xbd90db9d	-0.07073138
210	0x3f292d05	0.6608432
211	0x3ebd001d	0.3691415
212	0x3f14e106	0.5815586
213	0x3ea76a94	0.326985
214	0x3db112f9	0.08646197
215	0x3f5b8e2b	0.85763806
216	0x3f475674	0.7786629
217	0x3f3e3e7a	0.7431408
218	0x3e5bf2fe	0.21479413
219	0x3eeb478e	0.4595303
220	0x3f57e332	0.8433105
221	0x3eb197d2	0.34686142
222	0xbf9ffa8b	-1.2498335
223	0x3f071b17	0.5277571
224	0x3fa2457d	1.2677456
225	0x3e87f4af	0.26553866
226	0x3d368fac	0.04457061
227	0x3eeb9d90	0.46018648
228	0x3f7881b4	0.9707291
229	0x3f7444ce	0.9541749
230	0x3f3cd9e6	0.73769987
231	0x3e3a30d4	0.18182689
232	0x3fa3df33	1.280249
233	0x3f7ea911	0.99476725
234	0x3f914bae	1.1351221
235	0x3f11d9e2	0.5697309
236	0x3ea58a1d	0.32331935
237	0x3f8e3d9b	1.111255
238	0x3f0a1f21	0.5395375
239	0x3f5b2fd1	0.8561984

model.2.bias f4 [8]
0	0xbd91ef91	-0.07125772
1	0x3cbf3f0a	0.023345489
2	0xbc9b953f	-0.018992065
3	0xbe0c29a2	-0.13687757
4	0x3fe05377	1.7525471
5	0x3e24453b	0.16042034
6	0x3c9a3a52	0.018826637
7	0x400b7ba5	2.1794217

model.4.weight f4 [1, 8]
0	0xbd332180	-0.04373312
1	0xbd7f8ae5	-0.06238832
2	0xbdecce79	-0.11562819
3	0xbe936a34	-0.28791964
4	0x40735997	3.8023431
5	0x3ed4a0f8	0.4152906
6	0xbe9956fc	-0.29949176
7	0x409301b1	4.5939565
