linear.pth (torch, 2013 bytes, 1 tensors)

model.0.weight f4 [1, 32]
-0.099511266 -0.16938727 0.3394321 -0.21657912 -0.27304402 0.4063055 -0.040506344 -0.23696513
-0.08813444 0.09335476 -0.042831905 0.089253426 -0.14685485 0.124132946 0.25181597 -0.15139331
-0.389118 0.40683934 -0.5114133 -0.30409396 0.40815216 -0.13911253 -0.32864237 -0.13130632
0.43874508 0.27063832 -0.28780594 0.13710035 -0.05351235 -0.2999486 -0.37862104 0.024153037
00000000: 90cc cbbd db73 2dbe 0bca ad3e ebc6 5dbe
00000010: 6dcc 8bbe 4607 d03e fbe9 25bd fda6 72be
00000020: d47f b4bd c830 bf3d 8270 2fbd 80ca b63d
00000030: 1e61 16be 6a39 fe3d 06ee 803e d906 1bbe
00000040: 793a c7be 3f4d d03e fbeb 02bf 34b2 9bbe
00000050: 52f9 d03e 8473 0ebe d043 a8be 2a75 06be
00000060: 32a3 e03e 1b91 8a3e 4d5b 93be 0964 0c3e
00000070: c42f 5bbd dd92 99be 9eda c1be 97dc c53c
